Gym-brake/agent.pth (torch, 4135 bytes, 5 tensors)

0.weight f4 [64, 8]
0	0xbe3cd328	-0.18439925
1	0x3d9a1be6	0.075248525
2	0x3f1bc123	0.6084158
3	0xbef233a9	-0.4730504
4	0x3d614913	0.05500133
5	0xbf5c0530	-0.85945415
6	0xbf197b1b	-0.5995347
7	0x3ea2f304	0.3182603
8	0xbf1c15fc	-0.60971045
9	0xbebea992	-0.37238747
10	0x3e612eae	0.21990463
11	0x3e75deb5	0.24010737
12	0xbe2ff214	-0.17182189
13	0x3e1f5f4e	0.155637
14	0xbe493616	-0.19649538
15	0x3bcdecd9	0.006284338
16	0xbef1640e	-0.47146648
17	0x3e0de3e3	0.13856463
18	0xbeed8963	-0.4639388
19	0xbe9d5fc1	-0.30737117
20	0xbe6bac37	-0.23014913
21	0x3e0b6f38	0.13616645
22	0x3eb74596	0.35795277
23	0x3f22ba6e	0.6356572
24	0xbcb03414	-0.021509208
25	0xbe88c1df	-0.26710412
26	0xbd617d2e	-0.05505102
27	0x3ea5f073	0.3241001
28	0x3e7b231e	0.24525115
29	0xbea9eb12	-0.33187157
30	0xbda91d65	-0.0825756
31	0xbeaec644	-0.3413564
32	0x3e837824	0.25677598
33	0x3d8bb075	0.06820766
34	0x3e0a8e35	0.1353081
35	0x3ded6451	0.115913995
36	0x3eca78d9	0.39545324
37	0xbe26bac3	-0.16282181
38	0xbe85aeaf	-0.26109836
39	0x3ee9114c	0.4552101
40	0x3e18eb78	0.14933574
41	0xbe0457b9	-0.12924089
42	0xbbd6ed1e	-0.0065590283
43	0xbe227e1e	-0.15868422
44	0x3ccbb7a9	0.02486785
45	0xbd229df0	-0.039701402
46	0x3efdb018	0.4954841
47	0xbd956577	-0.072947435
48	0xbe365fb8	-0.17809951
49	0xbe5a58f3	-0.21322994
50	0x3d99e8a0	0.07515073
51	0x3c9d4c1f	0.019201336
52	0xbd0e51c0	-0.03474593
53	0xbdfc7892	-0.123276845
54	0x3ef74670	0.48295927
55	0x3e56c8c9	0.20975031
56	0x3e01fbe2	0.12693742
57	0xbd354574	-0.04425569
58	0x3e5b0a4d	0.21390648
59	0xbe2cbab6	-0.168681
60	0x3e3334a0	0.17500544
61	0x3e0bac56	0.1363996
62	0xbf0b3953	-0.54384345
63	0x3d7dc904	0.06195928
64	0xbc70eed5	-0.0147053795
65	0xbed69b66	-0.41915435
66	0xbd8dbea1	-0.06921125
67	0x3e297791	0.16549517
68	0xbe31c81e	-0.17361495
69	0xbe2bded8	-0.16784227
70	0xbd32e1bf	-0.04367232
71	0xbee40b04	-0.44539654
72	0x3ead6796	0.33868092
73	0xbde85778	-0.11344808
74	0x3d8f3824	0.0699313
75	0xbe82dd61	-0.25559524
76	0x3ddb78a4	0.1071637
77	0x3dea7eb5	0.11449949
78	0x3e5c4b10	0.21513009
79	0xbdbd576d	-0.09245191
80	0xbe5ccbd1	-0.21562125
81	0xbe86a414	-0.26297057
82	0xbe6c5b43	-0.23081689
83	0xbeb9f377	-0.3631856
84	0x3e9ed9ab	0.31025442
85	0xbee6e00a	-0.45092803
86	0x3d2479b1	0.040155116
87	0xbebec591	-0.37260106
88	0xbedb8f50	-0.42882776
89	0xbe9d4cfb	-0.30722794
90	0x3e5636fb	0.20919411
91	0xbe1e3b7b	-0.15452377
92	0xbe52a5e3	-0.20571093
93	0xbec5dcce	-0.38645023
94	0x3e63031a	0.22169152
95	0xbe79fbad	-0.24412413
96	0x3e45a954	0.19302875
97	0xbd88ae5e	-0.06673883
98	0xbdea63fa	-0.1144485
99	0xbb85ad43	-0.0040794923
100	0xbe97b74a	-0.29632026
101	0xbe862e96	-0.26207417
102	0xbce49cb6	-0.027906757
103	0xbee2c000	-0.4428711
104	0xbe38d7c4	-0.18051058
105	0x3f86c5f5	1.0529162
106	0x3e069699	0.13143386
107	0x3e5bbd1a	0.21458855
108	0x3e128841	0.14309789
109	0xbe1208bf	-0.14261149
110	0xbe036f5e	-0.12835452
111	0xb8a82b00	-8.0188736e-05
112	0x3e70553f	0.23470019
113	0x3da97707	0.08274656
114	0xbd9e1ae0	-0.0771997
115	0xbe2a29b7	-0.16617475
116	0x3e4ce6cc	0.20009917
117	0xbc16251f	-0.009164124
118	0x3f166449	0.58746773
119	0x3e1ebdf7	0.15502153
120	0xbe43b407	-0.19111644
121	0xbe9848ad	-0.29742947
122	0xbe5ce304	-0.21570975
123	0xbe391eb4	-0.18078119
124	0xbeb392aa	-0.35072833
125	0xbe4bb074	-0.1989153
126	0x3dd0168a	0.10160549
127	0xbe999480	-0.2999611
128	0xbe69b7c8	-0.22824013
129	0xbdbeb609	-0.09312064
130	0xbe557067	-0.2084366
131	0xbe64d96a	-0.22348562
132	0x3dbade31	0.09124411
133	0xbecb95f9	-0.39762858
134	0x3dd9637d	0.10614679
135	0xbecb30c2	-0.39685637
136	0x3dcf06ed	0.10108743
137	0xbe18860f	-0.1489489
138	0xbe72cd9f	-0.2371125
139	0x3ea94d7f	0.33066937
140	0xbdbe9358	-0.09305447
141	0xbefb05c0	-0.49027824
142	0xbf1cfa33	-0.61319274
143	0x3e19ee84	0.15032393
144	0xbed2ef5d	-0.41198245
145	0x3ef89efd	0.48558798
146	0x3e77b788	0.24191105
147	0xbe7e6361	-0.24842598
148	0x3e8d557d	0.27604285
149	0xbee2aced	-0.44272557
150	0xbf21a0a5	-0.6313575
151	0xbe60c79d	-0.21951146
152	0x3f628957	0.88490814
153	0x3eb52dcd	0.35386506
154	0x3d3e42b9	0.04645035
155	0x3e123293	0.14277105
156	0xbec7b7bc	-0.39007366
157	0xbe87fcab	-0.26559958
158	0x3ee4376a	0.44573528
159	0xbe888b04	-0.2666856
160	0x3f1d64c7	0.614819
161	0xbe8d0048	-0.27539277
162	0xbde54173	-0.11194124
163	0xbe51c923	-0.20486884
164	0xbe262222	-0.16223958
165	0x3e53ad1c	0.20671505
166	0x3e45fc08	0.19334424
167	0x3e9bdce2	0.30441958
168	0xbd475ce5	-0.048672576
169	0x3c2c4b2a	0.010515967
170	0x3c377447	0.011197156
171	0x3c297401	0.010342599
172	0xbebcd0dd	-0.368781
173	0x3ea2f737	0.31829235
174	0xbe992360	-0.299098
175	0xbc520bf2	-0.012820231
176	0xbecfc568	-0.40580297
177	0x3d5acadd	0.05341612
178	0xbd2c1eaa	-0.04202143
179	0x3ca9f9b1	0.020748945
180	0x3eadc881	0.33942035
181	0x3e926e0a	0.28599578
182	0xbea0fb50	-0.31441736
183	0xbe91fee7	-0.28514788
184	0xbe0058cd	-0.12533875
185	0xbd0fb071	-0.035080377
186	0x3e94e519	0.29081038
187	0x3e83be8c	0.25731313
188	0xbe80c41e	-0.25149626
189	0xbd2b30f5	-0.041794736
190	0x3d8c07b2	0.06837405
191	0xbf14115e	-0.57839
192	0xbee58f25	-0.44835773
193	0xbdee5105	-0.11636547
194	0xbcff1cd2	-0.031141672
195	0x3e5927fa	0.21206656
196	0xbf42e6be	-0.76133335
197	0x3e63ea10	0.22257257
198	0x3e955d9a	0.29172975
199	0x3f94bd70	1.1620312
200	0x3e24ca38	0.16092765
201	0xbe0051b2	-0.12531164
202	0xbd370fbc	-0.04469274
203	0xbe8dc7bc	-0.27691448
204	0x3e9ff414	0.31240904
205	0xbe84e4a7	-0.25955698
206	0x3eaea012	0.341065
207	0x3dd724b1	0.10505045
208	0x3e8c40d0	0.27393198
209	0xbdd06c7d	-0.101769425
210	0xbe754b3c	-0.23954481
211	0x3ee9ced6	0.45665616
212	0xbe4f086c	-0.20218056
213	0x3e9be5c8	0.30448747
214	0xbe2f5cf3	-0.17125301
215	0x3ee5d51c	0.44889152
216	0x3d66cfbe	0.056350462
217	0xbe7d6e2a	-0.24749056
218	0x3cb3d6f0	0.021953076
219	0x3e121651	0.14266326
220	0xbe4c0a4e	-0.19925806
221	0x3e61d436	0.22053608
222	0xbda961bd	-0.08270595
223	0xbf03fcb6	-0.5155748
224	0xbe5cb9d3	-0.21555261
225	0x3d9c2933	0.076250456
226	0x3db4f2b3	0.08835354
227	0x3df0bc87	0.11754709
228	0x3e40463f	0.18776797
229	0x3e93f5ca	0.2889846
230	0x3dbee4cf	0.093209855
231	0x3ee9b8bb	0.4564875
232	0xbe6434eb	-0.22285812
233	0xbf0ffe62	-0.5624753
234	0xbec142e0	-0.37746334
235	0xbedc27c2	-0.42999083
236	0x3e1ea3d3	0.15492181
237	0xbddc380a	-0.10752876
238	0xbf03e42a	-0.51520026
239	0x3ea37b63	0.31930074
240	0x3cf5f676	0.030024748
241	0x3e90d88f	0.2829022
242	0xbdd00208	-0.101566374
243	0xbeaf0e6f	-0.341907
244	0xbe8aebf4	-0.27133143
245	0xbd32aa91	-0.043619696
246	0x3e86a357	0.26296493
247	0xbe79f0ab	-0.24408214
248	0xbe1989e5	-0.14994009
249	0x3ee55643	0.44792375
250	0xbecb9414	-0.39761412
251	0x3ec96e43	0.39341936
252	0x3e907d3a	0.2822054
253	0x3e176cd1	0.14787604
254	0xbddbaa48	-0.10725838
255	0x3eafe7ed	0.34356633

0.bias f4 [64]
0	0xbc93a18b	-0.018021366
1	0x3e82b2db	0.2552708
2	0x3e7a8e21	0.2446828
3	0x3e5c2e3d	0.21502014
4	0x3e1a97e7	0.15097009
5	0x3e866021	0.26245216
6	0x3e8d4032	0.2758804
7	0x3e7c7c8d	0.24656887
8	0x3cbe10d1	0.023201378
9	0x3e429a6b	0.19004218
10	0x3ebcb795	0.36858812
11	0xbd8107ec	-0.06300339
12	0x3db82b0a	0.08992584
13	0xbed2a203	-0.4113923
14	0xbeb79691	-0.3585706
15	0xbe3bc7be	-0.18337914
16	0x3e2a6600	0.16640472
17	0x3e06b533	0.1315506
18	0xbed3fa73	-0.41402015
19	0x3ce8d7fb	0.0284233
20	0xbea9a1ef	-0.33131358
21	0xbe273c2e	-0.1633155
22	0xbe901475	-0.28140607
23	0xbdedb6d2	-0.11607136
24	0xbc47bed8	-0.012191497
25	0x3dd578e9	0.104234524
26	0xbcebc704	-0.028781421
27	0xbe832f1d	-0.25621882
28	0x3d907cd4	0.07055059
29	0x3b21ab09	0.0024668595
30	0x3e29711b	0.16547053
31	0xbe985f6b	-0.29760298
32	0x3e60640b	0.21913163
33	0xbe900e6c	-0.28136003
34	0xbe807d1b	-0.25095448
35	0x3ea34a2e	0.31892532
36	0xbc322502	-0.010873081
37	0xbe13018b	-0.14356057
38	0xbdccf0a5	-0.10006837
39	0xbdc425d7	-0.0957753
40	0xbcbdb55e	-0.023157772
41	0xbda64715	-0.081190266
42	0xbe860b3e	-0.26180452
43	0xbeb301d3	-0.3496233
44	0xbed0717a	-0.40711576
45	0x3ece10b3	0.40247115
46	0xbecb79ea	-0.3974145
47	0x3e50d9d7	0.203956
48	0x3d04a673	0.0323853
49	0xbd79b464	-0.06096305
50	0x3d839b27	0.06426077
51	0xbea55556	-0.3229167
52	0x3dc746b3	0.09730282
53	0x3e8360c1	0.25659755
54	0xbd84d356	-0.06485622
55	0xbec9e855	-0.39435068
56	0x3dd5347a	0.104104
57	0xbe342122	-0.17590764
58	0xbe87dfc7	-0.26537916
59	0x3e9b7908	0.30365777
60	0xbed904d4	-0.42386496
61	0xbe8556df	-0.2604284
62	0x37431b00	1.1629192e-05
63	0xbdf39996	-0.118945286

2.weight f4 [2, 64]
0	0x3e1b11b7	0.15143476
1	0xbdb89a8b	-0.09013852
2	0x3e90fa66	0.2831604
3	0xbd907ecf	-0.07055437
4	0x3e8b2128	0.27173734
5	0xbb0a626d	-0.0021115795
6	0xbe266776	-0.16250405
7	0x3dcece20	0.10097909
8	0xbdc2fd17	-0.09520929
9	0x3dd3f0d5	0.103486694
10	0x3e0eca62	0.1394439
11	0xbeb1d75b	-0.34734616
12	0x3eaeda00	0.34150696
13	0x3ee32871	0.44366792
14	0xbed743d4	-0.42043936
15	0xbe178686	-0.1479741
16	0x3d93e76f	0.07221877
17	0x3e130572	0.14357546
18	0xbe7cde55	-0.24694188
19	0x3f203694	0.6258328
20	0xbe7c31ec	-0.24628419
21	0xbde51a43	-0.1118665
22	0xbd6205e8	-0.055181414
23	0x3e0b635e	0.13612124
24	0x3f494032	0.7861358
25	0xbdd0838a	-0.10181339
26	0xbd04f67a	-0.03246162
27	0xbda7acb5	-0.08187238
28	0xbe2afbf5	-0.16697676
29	0x3ea2b13e	0.3177585
30	0xbe3d87c6	-0.18508825
31	0xbed9759c	-0.4247254
32	0xbd16c97e	-0.03681325
33	0xbe9c5d73	-0.30540046
34	0x3d2afb46	0.04174354
35	0xbfa0b499	-1.2555114
36	0x3e0e8ecf	0.13921665
37	0xbd0aadfc	-0.03385733
38	0xbce95fde	-0.028488096
39	0x3e77e1de	0.24207255
40	0x3e167b6a	0.14695516
41	0x3e06181c	0.13095134
42	0xbe8171f9	-0.25282267
43	0xbdd9eac4	-0.10640481
44	0x3f195acf	0.5990419
45	0xbe558dc8	-0.20854867
46	0xbf19a385	-0.60015136
47	0x3d979ff1	0.07403553
48	0x3e906765	0.28203884
49	0xbcacf0a0	-0.021110833
50	0xbe5a988a	-0.21347252
51	0xbd15eadc	-0.036600932
52	0xbe383e4d	-0.17992516
53	0x3cfd7927	0.030941559
54	0xbd70a896	-0.058754526
55	0xbe13e61c	-0.14443249
56	0xbce91940	-0.028454423
57	0x3ed3fd29	0.41404083
58	0xbe9eefa6	-0.31042212
59	0x3e9821d9	0.29713324
60	0xbeeb491a	-0.4595421
61	0xbf2198b5	-0.6312364
62	0x3d0ce54c	0.034398362
63	0x3cfcdffa	0.03086852
64	0x3f4c16fa	0.7972256
65	0x3c88365c	0.016627483
66	0x3ec002b9	0.37502077
67	0xbbe1b415	-0.0068879225
68	0xbe55ffbc	-0.20898336
69	0x3d52a06e	0.05142253
70	0xbdaf4908	-0.085588515
71	0x3da13cb0	0.07872903
72	0x3eb12bc6	0.3460371
73	0x3d0b0455	0.03393968
74	0xbec2b3be	-0.38027757
75	0x3d6e293d	0.058144797
76	0x3e5daa5a	0.21647015
77	0x3eecc78e	0.46245998
78	0xbe372591	-0.17885424
79	0x3c7289d7	0.014803371
80	0xbea08f32	-0.3135925
81	0x3df010e1	0.117219694
82	0xbeede9b6	-0.4646737
83	0x3e4d993c	0.20077986
84	0x3e77b648	0.24190629
85	0xbdb44745	-0.08802656
86	0xbe5ba22c	-0.21448582
87	0x3e070fd4	0.13189632
88	0x3f44e43b	0.7691075
89	0x3e2f8148	0.1713916
90	0x3e06c357	0.13160454
91	0x3dc901f6	0.09814827
92	0xbde13c9d	-0.10997889
93	0xbecd16c3	-0.40056428
94	0xbe07ef85	-0.13274963
95	0xbe1a121b	-0.15045969
96	0xbdf98e5b	-0.12185355
97	0xbf579a00	-0.8421936
98	0x3e0cc075	0.13745292
99	0xbfeb4859	-1.8381454
100	0xbdcbfbe8	-0.09960157
101	0x3e03833c	0.1284303
102	0xbed3d5ef	-0.41374156
103	0x3e00092e	0.12503502
104	0xbd514577	-0.051091637
105	0x3dcdcace	0.100484475
106	0x3ecb45cc	0.39701688
107	0xbe827994	-0.25483382
108	0x3e2bb7f8	0.16769397
109	0xbf143f30	-0.57908916
110	0xbd04db92	-0.03243596
111	0xbdf83529	-0.121195145
112	0xbea103b0	-0.31448126
113	0xbd01efae	-0.031722717
114	0x3d571071	0.052505914
115	0x3e902f1a	0.28160936
116	0xbe7865c4	-0.2425757
117	0xbe8660eb	-0.26245818
118	0x3e5c4395	0.21510155
119	0xbddea55e	-0.10871385
120	0xbd0384a0	-0.032108903
121	0x3ed7a0cd	0.4211487
122	0x3e0fe320	0.14051485
123	0xbf0b223e	-0.54349124
124	0xbde95ecd	-0.11395035
125	0xbeaafcfe	-0.33396143
126	0x3eb370d7	0.35047027
127	0xbde45d43	-0.11150601

2.bias f4 [2]
0	0x3f029581	0.51009375
1	0x3e083837	0.13302694

logstd f4 [2]
0	0x3f52eb8a	0.82390654
1	0x3d6ac822	0.057319768
